model/model_diff.onnx (onnx, 507 bytes, 1 tensors)

conv_layer1.weight f4 [1, 5, 2, 4]
000000 21 1c 0c 3e db bc 06 be 48 57 38 3d fd 09 0b 3e
       0.13682605 -0.1315798 0.045005113 0.13578029
000010 a3 91 3d 3d ef e9 03 3e 2e 4d 11 3d 52 bb 00 bd
       0.046281468 0.12882207 0.035473995 -0.031428643
000020 8e 8c 23 bd 34 8b b0 bd 2b 69 d3 3d 75 9a 9f bd
       -0.039928965 -0.08620301 0.103227936 -0.07793132
000030 8f 9a fd bd 61 3b 76 bd 2f 8e 19 3e 4e 54 b9 bd
       -0.12382995 -0.060115222 0.14995645 -0.09049283
000040 33 be 46 bb 14 50 17 be 73 dd 6d 3b 94 e0 1a be
       -0.003032577 -0.14776641 0.0036295324 -0.15124732
000050 a0 8e e7 3d d7 b1 b8 3d d8 9a 99 3d b9 15 d3 bd
       0.113065004 0.09018295 0.07500237 -0.10306878
000060 77 d5 16 bd b5 34 10 be 7f 60 a2 bc 5c ea fc bd
       -0.03682467 -0.14082606 -0.019821404 -0.12349388
000070 e7 5d 07 be c6 e4 98 bb c5 d8 11 be 54 b3 5f 3d
       -0.13219415 -0.004665944 -0.14242847 0.05461438
000080 ac 66 df bd 67 ed 47 3d f8 d4 a1 bd 4b 78 59 bc
       -0.10908255 0.04881039 -0.07901949 -0.013273309
000090 10 ee 19 be 4e 35 7b bd d2 36 95 3d df 46 d1 3d
       -0.1503222 -0.061330132 0.07285847 0.10218596
