model/model_diff.tflite (tflite, 2048 bytes, 1 tensors)

convolution i1 [1, 2, 4, 5] scale=0.0011909239 zero_point=0
000000 73 de fd e1 a4 92 b8 84 8a 29 26 57 03 ef be 72
       0.13695624 -0.04049141 -0.0035727716 -0.03691864 -0.109565 -0.13100162 -0.08574652 -0.14767456 -0.14052902 0.04882788 0.045255106 0.103610374 0.0035727716 -0.020245705 -0.07860097 0.13576531
000010 bf 81 98 f5 27 98 5f 91 82 6c ce 4c fc cd 1e 7e
       -0.07741005 -0.15124732 -0.12385608 -0.013100162 0.04644603 -0.12385608 0.11313777 -0.13219255 -0.1500564 0.12861978 -0.05954619 0.09051021 -0.0047636954 -0.060737118 0.035727717 0.1500564
000020 3f 88 3d e6 b4 a9 2e 56
       0.0750282 -0.14291087 0.07264636 -0.03096402 -0.09051021 -0.103610374 0.0547825 0.10241945
